utils/utils-testing/src/commonMain/resources/dynamic_quantize_lstm/test_lstm_defaults/model.onnx (onnx, 657 bytes, 2 tensors)

W_quantized i1 [1, 2, 12]
127 127 127 127 127 127 127 127
127 127 127 127 127 127 127 127
127 127 127 127 127 127 127 127
00000000: 7f7f 7f7f 7f7f 7f7f 7f7f 7f7f 7f7f 7f7f
00000010: 7f7f 7f7f 7f7f 7f7f

R_quantized i1 [1, 3, 12]
127 127 127 127 127 127 127 127
127 127 127 127 127 127 127 127
127 127 127 127 127 127 127 127
127 127 127 127 127 127 127 127
127 127 127 127
00000000: 7f7f 7f7f 7f7f 7f7f 7f7f 7f7f 7f7f 7f7f
00000010: 7f7f 7f7f 7f7f 7f7f 7f7f 7f7f 7f7f 7f7f
00000020: 7f7f 7f7f
